모델/emotion_classifier.pth (torch, 794251 bytes, 4 tensors)

model.0.weight f4 [256, 768]
00000000: ae01 4a3c 6b44 d2ba 6980 7bbb 13be 03bd
00000010: 3209 b2bc 40e0 0c3c f32b 04bc ec35 df3b
00000020: 486e d63a 606d d6bc 43db 0d3d 6319 ddbc
00000030: 0585 803b 8a5a 74bc 6e42 83bb 2756 083d
00000040: 5835 b43c 3d23 4bbd c7db 473d f82b 5f3b
00000050: c59f abbc f6f0 cabc f534 b63c d617 9c3c
00000060: dc14 2a3b f6af 5b3c df75 2abd 7573 c73c
00000070: 3af1 fa3c 6093 0cbd 2ad1 b43c 5321 c3bb
00000080: 9b7d c93c 4eda 88bc ce46 963c 08e9 643c
00000090: 61ca f9ba ee8f 813c 4a6a 2cbc 1e9f 333d
000000a0: 8cda a43b 0912 a0bc 8e7e 273c 9c57 cb3c
000000b0: 3902 23bd 36cf f83c adcf 94bc 9e7a 44bd
000000c0: a2bf 16bd 4d77 0c3d fb80 aebc 6ed1 f03c
000000d0: 3309 15bd 9797 3fbc c89c 4c3a 596c adbb
000000e0: b0c1 d8bc 7387 9bbb f0bb 06bd d2d0 05bd
000000f0: 1b65 95bc b8b5 a13c ed6e 0fbc 0bde 5cbb
00000100: 9880 fabb b63f 78bc 8b33 223a 9d35 1abd
00000110: f01c 0a3c 0cc3 ca3c caee 1cbc 3436 6bbc
00000120: f636 bd3b 8521 713d bbeb 313d c6be bdbc
00000130: bebd bcbc 61b5 c6bc 03df c53c 9fbb 313c
00000140: 1181 fbbc fedd aabb 1eda 773c f082 2dbc
00000150: 5ddb e6bb bc4a bb3b 7e7d cf3c bc66 b83c
00000160: 8705 1ebc cd8d 103d f091 62bc 8513 2e3b
00000170: 23da 143d b01c 4bbd b80e 293b 0757 d6bc
00000180: f7f4 adbc f244 e73b 99c5 71bc 9cd5 da3c
00000190: 65bf 70bc 221e 1abd 6a3c 053c c8df e33b
000001a0: 16bc 7ebd 2c59 ed3a fd78 9ebc 14a7 18bc
000001b0: b23e 0b3c 683b a43c 7525 983c d045 d53b
000001c0: 7e83 febb da49 23bc a069 efbc ec7e b23c
000001d0: 6725 82bb 4801 7a3c 1be1 f43c 3a9c f43c
000001e0: 0958 af3c 5759 223c 507b 2d3d 75bf cb3a
000001f0: 5164 433c 2075 76bc d318 d33c a481 873c
00000200: cdbb e83c ffdc 94bc ea48 623c fa20 d2bc
00000210: d8f2 223d f4aa 05bc e297 82bc a026 2cbb
00000220: 3dbc 8fbc d30c 9cbc 6fcd de3c 95ff a5bc
00000230: 193e 0c3d fc1c cb3b e8f6 5dbd 4f9f 12bd
00000240: c7be 4d3c 9f89 853c cbc5 303c 2e55 4ebc
00000250: 8224 ad3c 2972 bb3a f96b 12bc d57c 37bd
00000260: 519f 7e3c e67d 8f3d ae44 1bbd 7a66 64bc
00000270: 2e86 853b 4a68 c1bc 6935 113c 0a2c 13bc
00000280: c23b 08bd e63d 5a3b d18b a03b 5628 5b3c
00000290: aa30 913c 00c5 04bd 0264 19bb 29ab 1ebd
000002a0: 8d99 163b 4dc2 ea3c 6e96 8b3d e198 94bc
000002b0: 0a8b cabb 0d0e 13bd a4d1 5bbc 07fb 213a
000002c0: cc54 663c a5d0 90bb d706 8cbc 0a20 653b
000002d0: 8ccf 27bd a8b5 d6bc 6ef7 40bd aa9b a13c
000002e0: e1b7 afbc 649c b23c 5d6e b0bc 9e9b 96ba
000002f0: 0c18 633c 03f9 d93c 2d2b 24bb b961 53bd
00000300: 6ec6 e2bc 2d0b bb3c 3362 5dbc 9c02 023d
00000310: 3f57 2f3c 695f 763c f947 38bd 032b 18ba
00000320: ca58 773d b0fa 6c3b 5d54 13bd 7764 6dbd
00000330: 0301 133b 6df9 363c fd69 303d 7f1f 94ba
00000340: 6105 bebc 5667 03bd bf6c 8a3c 25f1 0a3d
00000350: 41af 033d f591 1ebd 69dd d23c 07f3 003d
00000360: cf76 79bc 63d9 dabc 035f 15bd 89ac 093d
00000370: b3df 403d 5e09 a93c c7ba f6bc d633 7ebc
00000380: c025 88bc f304 19bd 8f36 dabb 1105 1ebc
00000390: ce1a aebc 1490 e23c b74d 6d3d 5c99 f8bb
000003a0: 18f7 3a3c 15c4 7abc 2d6e 99bc 50e9 23bd
000003b0: 532d 2bbd bc74 f23c ac9d f13c ccce 8d3c
000003c0: dfd7 0f3d a0fa 08bc ea6f abbc 3361 cb3b
000003d0: 0883 383d 2688 b33b 6f23 203d 6a2f 49bc
000003e0: fe85 c13c 563d 0e3c f759 c73a 2b88 0ebd
000003f0: f68f 3ebc 0e1d 18bd 23fb 01bd 40fa cebc
0.012329502 -0.0016042119 -0.00383761 -0.03216369 -0.0217329 0.008598387 -0.008067119 0.006811848
0.0016359771 -0.026175201 0.034632932 -0.026989644 0.003922107 -0.014914164 -0.004005722 0.033285286
0.021998093 -0.049594153 0.04879358 0.0034053307 -0.020950207 -0.024773102 0.022242049 0.019054335
0.0025952375 0.013408652 -0.041616317 0.024347046 0.030632604 -0.034320235 0.022072393 -0.0059549003
0.024596026 -0.016705658 0.01834431 0.013971575 -0.0019057506 0.015815701 -0.010523388 0.043852918
0.0050309356 -0.01953985 0.010223044 0.024822049 -0.03979704 0.030372243 -0.018165434 -0.0479685
-0.03680385 0.03429346 -0.021301737 0.029396739 -0.036385726 -0.011693857 0.00078053446 -0.005292457
-0.026459545 -0.0047463714 -0.032894075 -0.03266985 -0.018236687 0.01973997 -0.008754474 -0.0033701684
-0.007644724 -0.015151909 0.000618749 -0.037648786 0.008429751 0.024751209 -0.009578416 -0.014356185
0.005774374 0.058869857 0.0434377 -0.023162257 -0.023039695 -0.02425641 0.024154192 0.010847955
-0.030701192 -0.005214452 0.015127687 -0.0105903 -0.007045193 0.005715696 0.025328394 0.022509925
-0.0096448725 0.03529148 -0.0138287395 0.0026561928 0.036340844 -0.049587905 0.0025796127 -0.026164545
-0.021234972 0.0070577795 -0.014756584 0.026713185 -0.0146940695 -0.037626393 0.00813208 0.006954167
-0.06219109 0.001810824 -0.019344801 -0.009317178 0.008498834 0.020047858 0.018572548 0.0065085664
-0.00776714 -0.009966338 -0.02922517 0.021789037 -0.003971744 0.015259095 0.029892495 0.02985965
0.021404283 0.009908996 0.042353928 0.001554473 0.011925773 -0.015042573 0.025768673 0.01654131
0.028409863 -0.018171785 0.013811329 -0.02565049 0.039782375 -0.008158434 -0.015941564 -0.002626814
-0.017545814 -0.019049084 0.027197568 -0.020263473 0.03423891 0.0061985236 -0.054190546 -0.03579646
0.012557692 0.016300974 0.010789345 -0.012593551 0.021135572 0.001430099 -0.0089368755 -0.044796783
0.015540914 0.07006435 -0.037907295 -0.013940448 0.0040748334 -0.0236093 0.008862832 -0.008982668
-0.033260114 0.0033301055 0.00489948 0.013376316 0.0177234 -0.032414436 -0.0023405557 -0.03873745
0.0022979707 0.028657103 0.068158016 -0.018139305 -0.0061811255 -0.03590207 -0.013416681 0.00061790686
0.014058303 -0.0044194036 -0.017093105 0.0034961724 -0.040969416 -0.026209667 -0.047110967 0.019727547
-0.021449985 0.021803088 -0.021537 -0.0011490469 0.013860714 0.026607996 -0.0025050149 -0.051606867
-0.02768251 0.022832477 -0.013512182 0.03174077 0.010701953 0.015037396 -0.044990513 -0.0005804749
0.06038741 0.0036160164 -0.035969127 -0.05795714 0.0022431023 0.011167866 0.04306983 -0.001130089
-0.023195924 -0.03208097 0.016897557 0.03392138 0.032149557 -0.038713414 0.025740342 0.03148177
-0.01522608 -0.026714986 -0.036467563 0.033611808 0.047088336 0.02063435 -0.03011836 -0.015515288
-0.016619563 -0.037358236 -0.006659336 -0.009644763 -0.021253016 0.027656592 0.057935443 -0.0075866412
0.011411451 -0.015305539 -0.018729294 -0.040017426 -0.04179127 0.029596679 0.02949413 0.017310522
0.03511798 -0.008360535 -0.020927388 0.0062066554 0.045046836 0.0054788766 0.039096292 -0.012279371
0.023623463 0.008681616 0.0015209307 -0.03479783 -0.011631003 -0.037137084 -0.031733643 -0.025265813

model.0.bias f4 [256]
00000000: 042c 073d 6d8c ccbc dceb 07bd 4f8e a1bc
00000010: f34c 1d3d a266 093d dbe9 0f3c cb93 dabc
00000020: e4ec 86bc 90cd d2bc 9199 6ebb 7d03 5fba
00000030: ddf0 9ebc beef a13c 2709 9cbc 38e1 c3bc
00000040: f22a c43c 9e14 90ba de29 dd3c c695 9dbc
00000050: af1b 6a3a 2cda e63c 50e2 8cbb 6e83 02bd
00000060: 5800 a53c 1128 7d3c 6933 203d b6b5 7db7
00000070: 032a 783c b60b a23c cd1f 1bbd 4fe9 073d
00000080: ac62 61bc cea3 19bb e714 f6bc 8486 f73c
00000090: da40 5a3c a0f0 97bc d4c3 cebc d71f 163c
000000a0: cd06 bb3c 4e2d 183d 2d63 f93c 7e17 233c
000000b0: c4ae 843c be53 06ba 2dc9 c93c 0932 ae3b
000000c0: 4fbf 9239 971a 3d3c 1d7e 14bd 0434 1cbb
000000d0: 0353 b8bc 693a 82bb 4041 ffbc d734 c83c
000000e0: 0686 0cbd dbcd 20bc 19f9 953c e6af 5cbc
000000f0: 2f26 5c3c 82ff a9bc 6f8b 143d a803 623c
00000100: 358c 1f3d ad26 efbc 5ace ac39 00e5 993c
00000110: d3b5 61bc c32b 05bd c4cd f0bc e383 183d
00000120: ffbc 61bc 2b96 0b3d 50b3 713c 0b80 ddbc
00000130: 7ce7 333c fa59 a2bc 0ded fd3c 2be6 aabc
00000140: 5cda 083b a602 cebc 6933 f9ba 6427 c4bc
00000150: 516a 813c 6650 b6bc b70e 6b3c 280f b1bb
00000160: 0ea1 56bc 5689 96bc f3d4 18bd 1cfb 94bb
00000170: b15a debb abaa 9d3b 7504 203d ba39 efbc
00000180: 771a cabc 48f2 083d b013 813c 94a2 dc3c
00000190: eb2e fabc 04b4 13bd dc81 0b3c 6fe3 6d3c
000001a0: 4632 38bc 5539 05bd ee6c 073d 46c8 8b3c
000001b0: 8c67 563b 3cde e3bc a1ba 033d a8ab b7bc
000001c0: 2831 cebc c1a3 963c 7690 b23c 8d92 3fbc
000001d0: 6479 9d3b 7fe3 0a3c 6d34 5c3c 8ee1 b03c
000001e0: 38cf fa3b cffe e83b 5c60 513b ddd8 d7bc
000001f0: 5d2a 25bc 441a 6f3c 99d2 fcbc c01d 84bc
00000200: 6964 3ebc fb00 b63b 4f36 a83c c366 903c
00000210: 8bcc 95bc a9ba 3c3c 0f7c 49bc 413f 4dbc
00000220: 8321 153c 64f7 473a 976e fa3c e11c 8f3a
00000230: db28 723c 3ea4 ca3c aa74 bd3c 4b29 a9bc
00000240: c4f2 263a b08a 8fbc 7a4c c93a d33b 09bb
00000250: 4c47 bbbc 8927 35bc 5697 213d 761d e73b
00000260: 9182 85bb 22a3 fc3c 4a82 ecbc 3dd7 1d3d
00000270: 4ece fb3c 14df d63c c88f 013d 3007 fa3c
00000280: 5bac 953c e8b6 f4bc 5a7b 1d3d 12fc 10bb
00000290: 0a1b 54bc 47a1 123c bf64 1c3d 5347 383b
000002a0: 63d3 ab3c 8b08 113c 7040 05bd f136 293d
000002b0: 16d0 0a3d 68ac 92bc fdce e5bb b980 3b3b
000002c0: 3e37 5bbc e8bc c13b bfdd 943c 1530 b0bc
000002d0: eaa1 33bc f590 cd3c 7046 cb3c fabb f1bc
000002e0: 96ac b63c 9e34 053c a46f babb 5ca9 283d
000002f0: c215 f5bc bf96 8d3c f671 51bc cb6a 01bd
00000300: 81e8 973c 600e ee3c 7852 563c 703b b53c
00000310: cf09 d33c b4f4 39bc b33c ddbc 9e32 f83c
00000320: 1bef f23b c999 a43b 5dd2 e4bc f574 bfba
00000330: 6931 c03b 8072 f43c 4de7 93bb a4bf d03c
00000340: 4947 6a3c e097 ddbc ce06 a8bb 2958 d4bc
00000350: 39dc 013d fc91 d6bc 3f1f 003d 7cf7 c03c
00000360: fff9 8cbc c493 64bc f01b a23c 2da1 7e3c
00000370: ef62 763c 31ee c5bc 0173 fb3c 7516 e4bc
00000380: 966c 903c 69e6 df3c 8c05 e23b 5a7f 58ba
00000390: 2a57 973c 37f4 b83c 4039 8d3c 0922 e7bc
000003a0: 4635 7d3c 827b 2fbc 5bf3 083d 7164 a83c
000003b0: b9f2 013d 3e03 95bb b878 e8bc 5d92 463c
000003c0: 7c38 e8bb d194 48bc 6b54 bd3c b8a7 d1bc
000003d0: 4cfe 083b 1625 033d 757e cc3c 025a a0bc
000003e0: 2caa ddbc 92f8 653c d87d d9bc 1b6d b93b
000003f0: 7a20 c6bc d5a3 1d3d fbed 5a3c c7a3 d63c
0.03300096 -0.024969304 -0.033183917 -0.019721178 0.038403463 0.033545144 0.008783783 -0.026681801
-0.01647038 -0.025732785 -0.003640745 -0.00085072947 -0.019401962 0.019767638 -0.019047333 -0.023911104
0.02394626 -0.0010992473 0.026997503 -0.019236457 0.0008930517 0.028180204 -0.0042994395 -0.031863622
0.020141765 0.015451447 0.03911153 -1.5122283e-05 0.015146735 0.019780975 -0.037872124 0.033181485
-0.013756435 -0.0023443582 -0.030039264 0.03021551 0.013321126 -0.018547356 -0.025239863 0.009162865
0.022830391 0.03715258 0.030442799 0.009954331 0.016196616 -0.0005124173 0.02463206 0.0053160232
0.00027989826 0.011541984 -0.036253083 -0.0023834715 -0.02250052 -0.003974248 -0.031159043 0.024439259
-0.034307502 -0.009814705 0.018307256 -0.013469672 0.013436838 -0.020751718 0.036265787 0.013794817
0.03895207 -0.029193247 0.0003296014 0.018785954 -0.01377626 -0.032512438 -0.029394992 0.037235152
-0.01377797 0.03407876 0.014752224 -0.027038595 0.010980483 -0.019818295 0.030996824 -0.020861706
0.0020882105 -0.025147747 -0.0019012514 -0.023944564 0.015797766 -0.022255134 0.01434677 -0.005403418
-0.013099922 -0.018376034 -0.03731246 -0.004546536 -0.0067857136 0.004811605 0.03906675 -0.02920233
-0.024670823 0.033434182 0.015756458 0.026932992 -0.03053995 -0.03606035 0.008514848 0.014519556
-0.011242455 -0.03252538 0.033062868 0.017063271 0.0032715527 -0.02781593 0.032160405 -0.02242072
-0.025169924 0.01838863 0.0217974 -0.011692655 0.0048057307 0.008477091 0.013440234 0.021591928
0.007654097 0.0071104537 0.0031948304 -0.026348526 -0.010080901 0.014593665 -0.03086214 -0.016127467
-0.011620619 0.005554316 0.020533709 0.017627126 -0.01828601 0.011519113 -0.012297644 -0.012527288
0.009102228 0.00076281116 0.030570311 0.0010918641 0.0147802485 0.02473652 0.023126919 -0.020649573
0.00063685724 -0.017522186 0.0015357875 -0.00209402 -0.022861145 -0.011056789 0.039450966 0.0070530726
-0.0040744026 0.030839507 -0.02887072 0.038535345 0.030738022 0.026229419 0.03163126 0.030521005
0.018270662 -0.029872373 0.038447715 -0.0022122902 -0.0129459 0.008949584 0.038182016 0.0028118684
0.02097482 0.008852134 -0.032532156 0.04131216 0.033889852 -0.017904475 -0.0070132003 0.002861066
-0.01337987 0.005912412 0.018172143 -0.021507302 -0.010963896 0.025093535 0.02481386 -0.02950858
0.022299092 0.008130221 -0.005689578 0.04117714 -0.029917601 0.017283795 -0.012783518 -0.031595986
0.018543484 0.029059589 0.0130811855 0.022123069 0.025761513 -0.011349846 -0.027006483 0.030297574
0.0074137575 0.0050232154 -0.02793234 -0.0014607 0.005865265 0.029839754 -0.004513657 0.025482006
0.014299222 -0.027049959 -0.0051277643 -0.025920944 0.03170416 -0.026192658 0.0312798 0.02355551
-0.017209051 -0.013951246 0.019788712 0.015541357 0.015038236 -0.02416143 0.030694487 -0.02784274
0.017629903 0.027331548 0.006897634 -0.0008258723 0.01847418 0.022577388 0.017239213 -0.028214471
0.015454596 -0.010710599 0.033435207 0.020555707 0.03172562 -0.0045475056 -0.028377876 0.012119857
-0.0070868116 -0.012242512 0.023111543 -0.02559267 0.0020903526 0.03201779 0.024962643 -0.01957417
-0.027058683 0.014036315 -0.026549265 0.0056587583 -0.024185408 0.03848632 0.013362403 0.026201142

model.3.weight f4 [4, 256]
00000000: 5750 683d 0d82 703d 3471 19bd 5c87 b33d
00000010: 981e ab3d 157d e43c be4c 12bb 8f52 ee3c
00000020: 6e0f b7bd a50a 5f3d 3f38 853d 6143 623c
00000030: 3b88 9d3a d342 7abd 6d1c ca3c 5707 943d
00000040: add1 dcbb e641 4b3d 8835 b0bd a5fd 96bb
00000050: ce17 913d fa21 79bc 806c 94ba cfd0 42bd
00000060: 5969 413d 5ea7 edbd f48a 9a3d cd9f 80bd
00000070: 5831 14bd d99d 00bd a332 02bd b9c5 9b3d
00000080: 64f3 4abd 0449 2c3d 5404 593d 501b 60bd
00000090: 7e0e a9bc 5e16 b3bd bcc5 dbbc fe98 aa3d
000000a0: 2239 6abd 381c f6bc 9197 993d fdc2 4abc
000000b0: 2129 c13d 3787 ee3d 305f fc3c 9c16 903d
000000c0: e4a6 9e3d af8d 783d 5a5d 5ebd 79fa ac3d
000000d0: abd5 863d 4892 a93d 65a4 73bd db19 8e3c
000000e0: 3360 6fbd 6f41 bfbc 9279 c93d 9b79 82bd
000000f0: 3edc a53d 9929 59bd f3d8 b93c fa74 803d
00000100: f8d9 a33d fb2c 2d3d cad1 c6bd 7aba aebd
00000110: 2079 c1bd 4437 4cbd b0d1 0a3d b3c1 a43d
00000120: bcb2 edbc e485 9e3d a460 c2bd 2839 3e3d
00000130: 50f2 3b3d 1af4 883d 0a67 7abd 44fb 9f3c
00000140: bf12 63bd ee7b b73d aa86 c7bd 27b6 acbd
00000150: 52bd b33c 95b9 7fbd d3dc aa3d d375 b2bd
00000160: 089f 473d 82b6 b63d 4533 9fbd 678b 9b3d
00000170: f78b 0c3d f17e 4cbd f76a 823c 7be3 c9bc
00000180: 0888 b6bc 7e1d a83d f42b 11bd fbc6 9fbd
00000190: c05c d4bb e221 dcbd bb2d ac3d 03a8 163d
000001a0: 2b13 51bd 11ea 29bd a67a a13d 2c06 5a3d
000001b0: 9203 4c3d 4504 c5bb 23cb b7bc f8f6 90bd
000001c0: 335b 17bd 5015 8e3d d56a 863d dfb0 47bd
000001d0: 9584 3e3d 958e dcbd 9e85 853c 6117 40bd
000001e0: 239d ac3c 408a 37bd 2a15 0a3d 51d2 ea3c
000001f0: df50 823c 049f 9c3d 2acc a93d 245d 973d
00000200: c9e9 b93d 9d23 923d c743 70bd e4d9 a13d
00000210: a85c 153d 1930 b3bd b1c3 a13d 264b 4c3d
00000220: 7065 6a3d 0039 4d3d 8438 983d 1152 e83d
00000230: f3ac 76bc bada 67bd b60f 3d3d ba79 203d
00000240: 4460 cd3d 4cbe b9bc 66e0 eebc 547f 47bc
00000250: d0a1 713c 2c42 a73d 3e68 803d a61c 76bd
00000260: 3603 8f3b 763d c6bd 7463 563d b89e f33c
00000270: 4f2f d6bd c565 ba3d 2967 b63d 610c 403d
00000280: a803 dbbd ba1d 9f3d 008a 563d e2b5 12bd
00000290: 83c4 06bd fd83 85bc bb93 673d 9198 99bd
000002a0: 82f2 88bc 9257 a03d a164 45bd d6ab 733d
000002b0: f0c5 c9bc 83fa ac3d 703d 193d 897b 99bc
000002c0: a873 bdbd dfdc cf3d 8215 babd f1e9 243c
000002d0: cab3 d2bb da7b 74bd ab6c c4bc 2787 743c
000002e0: db19 97bd e8af ac3d 795b 843d 6095 673d
000002f0: 087c 5b3c 486a c5bc 1880 e33c 199f 7a3c
00000300: 12eb 1ebd ae34 833d dba7 7f3d 5839 8ebd
00000310: 5e87 aabd 3b41 6f3c 722f 74bd 329e 24bd
00000320: 07bc 55bd e30e 753d 35d2 6bbc 780b 3f3d
00000330: ee75 45bd 971d 3d3d c085 9ebd 2a18 7bbc
00000340: 3069 a83d a381 79bd 0046 df3d d2f3 2abd
00000350: dee9 53bd fc09 94bd 418c 40bd f12c 833c
00000360: 0b76 c7bd eccb ad3d 77b5 793d d391 973d
00000370: a802 e23c a380 e9bb 5e6a 8c3d 9e89 7ebb
00000380: a867 37bd ff20 35bc 1a91 3cbd e8fe aabd
00000390: 3536 003d 819a ea3a bec4 2abd d064 07bd
000003a0: fc08 e6bd d225 c4b8 df13 81bd a02f 06bd
000003b0: a349 71bd 55eb 61bd 1563 8c3d 1835 683c
000003c0: ba1a e43d dec7 74bd d8b0 a03d 9756 1d3d
000003d0: 04a3 68bd 5eea 8e3d 4e9b 65bd bb1d 60bd
000003e0: 26d6 79bd e3b8 de3b ad65 5bbc 145a ce3d
000003f0: bb59 953d 9d97 b03c efbc 7f3d 023a 993d
0.056717243 0.058717776 -0.037461475 0.08766052 0.08355445 0.027891675 -0.0022323574 0.029092101
-0.0893849 0.05445351 0.06504869 0.01381001 0.0012018749 -0.061098885 0.024671758 0.072279625
-0.0067388625 0.049623393 -0.0860396 -0.0046078735 0.070846185 -0.015205855 -0.001132384 -0.047562417
0.047219608 -0.116041884 0.075460345 -0.062804796 -0.03617987 -0.031400535 -0.031786572 0.07606072
-0.04954852 0.04206182 0.052982643 -0.054713547 -0.020636793 -0.087445006 -0.026827686 0.08329962
-0.057183392 -0.030042753 0.07499612 -0.01237559 0.09431673 0.11646884 0.030807108 0.070355624
0.077466756 0.060681995 -0.054288246 0.08446211 0.06583723 0.08279854 -0.05948295 0.017346313
-0.058441352 -0.02334663 0.09837641 -0.06370851 0.080986485 -0.053018186 0.022686457 0.062723115
0.080005586 0.042279225 -0.09707983 -0.08531661 -0.09446931 -0.049857393 0.03389138 0.08044758
-0.029015891 0.07740381 -0.09491089 0.046441227 0.045885384 0.06687184 -0.061133422 0.019528992
-0.0554378 0.089591846 -0.09742482 -0.0843318 0.02194086 -0.062432844 0.083429 -0.087138794
0.04873565 0.08921529 -0.07773451 0.07594948 0.03431317 -0.04992575 0.015920145 -0.024644604
-0.022281662 0.0820875 -0.035442308 -0.078016244 -0.006480783 -0.1074865 0.0840716 0.036781322
-0.05104367 -0.04148299 0.078847215 0.053228542 0.049808092 -0.006012472 -0.02243573 -0.070783556
-0.03695221 0.06937659 0.06563345 -0.04875266 0.04651316 -0.10769383 0.016299065 -0.046897296
0.021071022 -0.04480958 0.03371159 0.02866474 0.015907703 0.07647517 0.08290894 0.07390812
0.09077794 0.07135699 -0.058658388 0.079028875 0.036465317 -0.08749408 0.07898653 0.049876355
0.057225645 0.050103188 0.074326545 0.11343778 -0.015055883 -0.05660508 0.04615756 0.039178587
0.10028127 -0.022673748 -0.029159736 -0.0121763535 0.014748052 0.08166918 0.062698826 -0.060085915
0.0043643964 -0.096796915 0.05234094 0.029738769 -0.10458242 0.09101442 0.08906395 0.046886805
-0.10694057 0.07769342 0.0523777 -0.03581799 -0.032902252 -0.016298288 0.05653737 -0.07499803
-0.0167172 0.07829203 -0.04819167 0.059490047 -0.024630517 0.08446219 0.037412107 -0.018735664
-0.09250575 0.1014955 -0.090861335 0.010065542 -0.006430124 -0.059688427 -0.023977598 0.014924801
-0.073779784 0.08431989 0.064627595 0.05653894 0.013396271 -0.02409853 0.02777104 0.015296721
-0.0387984 0.06406532 0.06241594 -0.06944531 -0.083266005 0.0146029545 -0.05961556 -0.04018993
-0.05218127 0.05982865 -0.014393379 0.046641797 -0.04820817 0.046170797 -0.077403545 -0.015325585
0.08223188 -0.060914647 0.10902023 -0.04173643 -0.051736705 -0.07228467 -0.047008757 0.01601264
-0.09739312 0.08486161 0.060964074 0.07400861 0.027589157 -0.0071259304 0.068562254 -0.003883935
-0.04477659 -0.01105523 -0.046036817 -0.08349401 0.031301696 0.0017898829 -0.041691534 -0.033055127
-0.112321824 -9.353053e-05 -0.06302618 -0.032760262 -0.058908116 -0.05515607 0.06854836 0.014172815
0.1113791 -0.05976092 0.0784623 0.038412657 -0.05679609 0.06978296 -0.056056313 -0.054715853
-0.060995243 0.0067969426 -0.013390941 0.10075775 0.07292505 0.02155667 0.06243604 0.07481767

model.3.bias f4 [4]
00000000: febb 273d c6c3 babc 74f2 9abc 2b36 dbbc
0.040950768 -0.02279843 -0.018914439 -0.026759228
