모델/emotion_classifier_mlp.pth (torch, 924937 bytes, 6 tensors)

model.0.weight f4 [256, 768]
00000000: 6049 dc3c 36dd 563c 10e1 81bb fe42 b5bc
00000010: 4e92 18bd f5a5 dabc 01d7 a13c 71c0 283b
00000020: 9e6c b83b 50aa c2bc 7d3d 6ebc a432 c7bc
00000030: d593 14bc 4b1d 383c 984c bebc 9ef2 24bd
00000040: 1ac6 1dbd ef05 8f3b 0e99 c53c 2875 94bc
00000050: c8f0 aa3b e6fd ea3b 7a33 00bc f780 b33c
00000060: c78c 18bc 1d47 cabb 3a87 fcbc 274c 4cbb
00000070: 3aef 1f3c bfd4 83bc 4226 9e3c 8508 a5bb
00000080: 0945 d83c 027f d43b 664c 163d eb70 b33c
00000090: 9d57 093d 1070 993b ccd1 06bc f429 87bc
000000a0: 9bde b93c 7ada 7abc 979b 09bb fce4 b33c
000000b0: ba10 3d3c 157d 0c3d 55bf 783c dbf2 183c
000000c0: 5073 433c 5240 bbbc 4d66 c33b 3fc5 27bd
000000d0: 8950 02bd afa5 a1bb e657 f0bc e242 47bc
000000e0: 1612 bbbb e643 0b3d 06f2 fdbc 5ee3 8a3c
000000f0: 2d16 833c d33c cc3b d602 573c 7cb5 0dbd
00000100: ff24 053d 2eb1 1abc 4ffe 1e3d 00ea cdbc
00000110: 622f 223d 47a5 923b 5a6a 1bbb 9d64 f5bc
00000120: c467 cabb 354b 0dbd 3546 14bd 2dc2 eabc
00000130: 8874 6fbc dd01 043d 95f3 b23c 380e b43c
00000140: 9a1a dcbb 8f10 253c 6f61 4a3c 85b8 f1bb
00000150: fd58 a9bc 8895 f13b f74b 2f3c c4d9 943c
00000160: 6f97 e9bc 82d9 8ebc bcb2 613c 4184 0cbc
00000170: e207 003d 8e9a adbc f8e7 80bc f6c5 553c
00000180: cadd e4bc 491d a33b f741 653c d8ae 1b3d
00000190: c028 15bc 3970 223d 617c 2cbc 7d00 c8bc
000001a0: 9e99 9e3c 6623 30bc 4135 603c e254 ccbc
000001b0: ebdd 41bb b151 a13b 2ff8 c33c ceba 01bd
000001c0: e614 babc 0cc9 17bd b208 afbc 8843 36b9
000001d0: 7ef4 2dbc 906c 193d 9a75 47b9 043e 43bc
000001e0: 1e95 203d 50b0 a7bc 13d2 ce3a 12dd 5cbb
000001f0: 5fd3 2bbb 7e8c e43c 1623 15bd 94f5 273d
00000200: 9cd3 57bc cd45 313c 204e 9cbc 9a63 3a3c
00000210: 88c9 1c3d 34b0 e7ba 99eb 0f3d 5b96 a1bb
00000220: 0c3d 5b3c 2757 a13c 3db2 d73b 12f1 033c
00000230: b13f abbc ca0f 973c ddc0 b6bc e4de dbba
00000240: 4c30 c0ba 0c1c 9fba fc3b a43a 457b 17bd
00000250: 3f24 1abc 31a5 563b ec39 b73c 1981 d9bc
00000260: 3e05 f73b b20f 91bc 3694 e6bc 3f0d c43c
00000270: 7d81 2a3c 1d70 f1bc 2abe 6e3c ff11 ca3b
00000280: 20ab e5bc c4e4 663b d5d3 b7bc eba6 683c
00000290: dcb2 40bb 6d81 dc3c 8a20 e3bc a49b 9dbc
000002a0: 3a68 d238 a031 d83c b932 adbc 0945 823c
000002b0: 65d6 a5ba 78bc b93b b30a 603b 9140 b53c
000002c0: 2743 85b9 f721 f6bc 7652 c13b 42bc 043d
000002d0: 8deb 8e3c 0e47 bfba 5227 d73b 765c 8fbc
000002e0: cf15 a3bc b478 83bc 57aa 38bc 8700 1dbd
000002f0: a68d 7dbc 4ece cabc 3925 df3c 766b b53c
00000300: 30ed fd3a c61f 0fbd 87ac 60bc 46f9 b2bc
00000310: 8654 81bb b9fd 953c cbff 07bc 6c52 873b
00000320: b62a 053c e99c 243d 98da 3d3c 39e2 c4bc
00000330: 0879 9d3c 65e4 983c 6f13 62bc 3314 6739
00000340: f896 8a3c 7b73 f53c 5f61 823c 1b0d d63c
00000350: 1bfa d0bc ce43 b4bc 9b0e f3bc d43a 063d
00000360: cc26 893b 3581 c8b9 87c5 c0bc 1bc5 83bc
00000370: 0603 33bb b1bf a4bc b589 86bb 0e9e febb
00000380: f478 f13c 8ab4 20bc 3999 1abd 4d5b fcbb
00000390: 0f99 05bc caed c93c d1a6 c9bc bd0b 0f3c
000003a0: 9b95 10bd 83db 233c 589d 943c b50e 42bc
000003b0: afc0 153c 96ab 193d 59e2 59bc 6393 083c
000003c0: c2a6 043d 4adb feb9 de08 d8bb 07b3 27bd
000003d0: 9291 6e3c 6ee9 2bbd e1c4 d7bc b5a2 b3bc
000003e0: 0f62 c63c 91b3 ee3c d559 97bc d7b4 cdbc
000003f0: a537 ef3c 3e7e 8a3c ae9d 8abb 04ec c0bc
0.026890457 0.013114264 -0.003963597 -0.02212667 -0.037248902 -0.026690463 0.019755842 0.002574947
0.0056281826 -0.023762852 -0.014541027 -0.02431614 -0.009068449 0.011237453 -0.023229882 -0.04027044
-0.038519002 0.004364721 0.024120834 -0.01812227 0.0052166916 0.0071713803 -0.007824773 0.021912081
-0.009310908 -0.006173028 -0.0308262 -0.003117332 0.009761626 -0.016092656 0.019305352 -0.005036416
0.026400106 0.006484867 0.036693953 0.02190443 0.03353082 0.0046825483 -0.00822873 -0.016499497
0.022689154 -0.015310878 -0.002099728 0.021959774 0.011539632 0.034298975 0.015182336 0.009335245
0.011929348 -0.022857819 0.005963123 -0.040959593 -0.031815086 -0.004933081 -0.029338788 -0.012161942
-0.005708943 0.0340003 -0.030999195 0.01695412 0.016001785 0.0062328367 0.013123235 -0.034596905
0.032505985 -0.009441657 0.038816746 -0.025135994 0.03959597 0.004475269 -0.0023714514 -0.029955203
-0.0061769206 -0.03449555 -0.036199767 -0.028657043 -0.014615186 0.03222834 0.021844665 0.021979436
-0.0067170383 0.010074749 0.012352332 -0.007376733 -0.020672316 0.007372562 0.010699264 0.018170245
-0.028514592 -0.0174377 0.013775524 -0.008576454 0.031257518 -0.021191861 -0.015735611 0.013047686
-0.027937789 0.0049778563 0.013992778 0.03800854 -0.009103954 0.039657805 -0.010527701 -0.024414295
0.01936036 -0.010750627 0.013684572 -0.024942819 -0.0029581736 0.0049230685 0.023922054 -0.03167229
-0.022715043 -0.037056968 -0.021366451 -0.0001738203 -0.0106173735 0.03745705 -0.00019021929 -0.011916641
0.03920471 -0.020469815 0.001577916 -0.0033701104 -0.0026218516 0.027899023 -0.036410414 0.041005686
-0.01317301 0.010819864 -0.019080222 0.011376286 0.038278133 -0.0017676414 0.035136793 -0.004931254
0.013381254 0.019694878 0.006582527 0.008053081 -0.020904394 0.018440146 -0.022308761 -0.0016774801
-0.0014662831 -0.0012139096 0.0012530084 -0.036982793 -0.009408056 0.003275227 0.022366486 -0.026550816
0.0075384667 -0.01770768 -0.028146844 0.023932097 0.010406849 -0.029472405 0.014571706 0.006166696
-0.0280357 0.003523157 -0.022439877 0.014199953 -0.0029403483 0.026917184 -0.027725477 -0.019239254
0.00010032994 0.02639085 -0.02114235 0.01590206 -0.0012652396 0.005668219 0.0034186065 0.022125514
-0.0002541777 -0.030045493 0.0058997227 0.0324061 0.017446304 -0.001459332 0.0065659666 -0.017500143
-0.01990786 -0.016048767 -0.011271081 -0.03833058 -0.015475666 -0.024756577 0.027239429 0.022145968
0.0019373056 -0.03494241 -0.013713009 -0.021847378 -0.0039468436 0.018309461 -0.008300732 0.0041296985
0.008127859 0.040188704 0.011587761 -0.024033653 0.019222751 0.018663594 -0.013798579 0.00022037402
0.01691769 0.029962292 0.01591557 0.026129296 -0.025509885 -0.022004988 -0.02967005 0.032770947
0.004185533 -0.0003824324 -0.023531688 -0.016085198 -0.0027315035 -0.020110937 -0.0041057714 -0.0077703064
0.02947662 -0.009808669 -0.03774378 -0.0077013136 -0.008154168 0.02464952 -0.024615677 0.008730826
-0.035298925 0.010001066 0.018141434 -0.011844327 0.009140178 0.037517153 -0.013298594 0.008335921
0.032385595 -0.00048610038 -0.006592854 -0.04094222 0.014561074 -0.041970663 -0.026338996 -0.02192817
0.02421668 0.029138358 -0.018475452 -0.025110645 0.029201338 0.0169059 -0.0042302227 -0.023550041

model.0.bias f4 [256]
00000000: 0f52 99bc 9180 1bbc a18c 9ebb 6513 993c
00000010: 5bb9 e03b ff3b c63c 365d 9f3b 0278 a53c
00000020: a1b4 423c f0ad a13c f7ad 163c e061 cd3c
00000030: 39de 5a3c 8bec 9ebc 26fa c33b 22c0 f13c
00000040: 2761 82ba f4a1 123c 68f7 1e3c ff1d 083c
00000050: 47a0 173d d38b 0abd 0844 21bd 8351 f53c
00000060: c3fd 7bbb 06d3 eebb a8fd a73c 47aa b83b
00000070: 80e1 f73c 2692 083d a47d 0abd ed28 503c
00000080: 3415 08bc ec93 d13b 3dee 4cbc 8520 b239
00000090: 731e 0abd b88b 763c c33c e63c 0898 96bc
000000a0: bfb9 c33b 8c6e 3abc 5892 c4bc 6c69 933c
000000b0: 5d2f 523c 5790 3dbc 1d30 de3b b3f7 a8bc
000000c0: 3e05 1c3b 9b2d a4bb 5eb4 06bc ae87 0f3d
000000d0: 29c3 0db9 dd84 34bc ed3f 9dbb f50a 393c
000000e0: 7f08 43bc 7ee6 2ebc d6a7 ef3c d1a1 ab3b
000000f0: a2ed ccbb 7992 a9bc 399f 0fbc d262 7fbc
00000100: 2aee 4ebc 08a4 cb3c 493d c73c 885a 343c
00000110: a593 6a3c cf18 1fba 7420 3d3c d3d0 ff3b
00000120: bdf7 b8bb bc77 cb3c 467c 24bd 1a52 d63c
00000130: 3a78 d9bb b27c 3ebd cde2 20bd 5466 35bc
00000140: 3c7b 5bbc c8c8 d43c d8ca 2d3c 2db7 793c
00000150: 64a0 55bd 5174 cb3c fb2d ce3c a05d 9a3c
00000160: 3431 9abc 70b9 e9bc 3f72 70bc 600a ee3c
00000170: 0d85 063c 65ba ee3c ec54 19bd 7cde 8b3b
00000180: c848 22bc 6682 31bd a414 cdbc a90b 5bbc
00000190: 19c4 ccbc 6551 e33c 26d4 fe3c 7005 e8bc
000001a0: 1e8e c4bc 7b6b edbc 1231 29bd 182c 95bb
000001b0: 999e 523c dac9 7c3c 2fff 14bc 3a30 0f3c
000001c0: 0657 833c 2b6a 543a f7cc 793c 6a30 41bd
000001d0: 89b1 26bd 32be 53bc a05d 703c 03a0 29bb
000001e0: 5e93 c8bc dc6f c03c 1480 84bc e7a6 ec3c
000001f0: c40e 2f3c 265a 00bd a547 193d 2716 a8bb
00000200: 823c b4bc f6fb cfbc 8c25 32bc 079f d63c
00000210: 8d3b 4dbd 5b5a 9e3c 6ced acbc 3109 903c
00000220: b60f 52bb 3102 babc fb2f 023a a6c4 b8bc
00000230: 3ba8 4dbc cae2 b439 496c 5e3c fb79 913c
00000240: d9b5 eebc 6b39 df3c 2bb7 b0bc 03ff e1bc
00000250: 3dd7 253c 4584 03bd c8e9 c3bc 64ed 003c
00000260: 202e bc3b 8cea 143c c935 1a3d 1b2e c63c
00000270: 3ca7 25bc c33a 45bc f900 173c ea85 033c
00000280: 2775 afbc 1a11 65bc 01ba 023d cb17 2bbd
00000290: 9d27 8e3c 4fca 20bd 4bf3 173b f399 22bc
000002a0: 69ac 48bc 2d73 823b 420e e63c 9a6e 183d
000002b0: 9f42 f53c 0cd0 55bd 0dbb c33c befa ce3c
000002c0: 0a15 f63b 0318 fdbc ec92 7e3c 9a34 223c
000002d0: a8b9 5e3c 0ee7 a13c 7df5 763b fa07 803a
000002e0: 211b 90bc 7493 d6bc 0d17 e13c 10a5 253c
000002f0: 49cf 303c 741c 51b9 c8b6 b53a fc84 20bd
00000300: 7d7b c7bc f821 723c 5882 7838 09fe 013d
00000310: 25de 79bc 939b 6dbc 2761 613c 93ee dfbc
00000320: 100c 093d 1f9e bbbc e95a 523c 8f1b b4bb
00000330: ea12 e638 8214 d73c 62ce 24bc 4326 24bd
00000340: c171 3bbc 6e1d 26bc f3ee 80bc 2b93 4abc
00000350: 215b a8bc c8f7 253b c90c 0b3c 82b5 abbc
00000360: 0ad3 013d 7369 36ba 62d6 e4bc d030 933c
00000370: 68fa 05bc 8fe9 7a3c 8198 bf3c f3fc c33c
00000380: 100e a2bc eb13 973c db67 033c c1ea 4fbc
00000390: d93e 5e3c 0d01 223d a99d 233d a752 083d
000003a0: 0ac8 da3c 4ffc d2b8 afb5 843c 256e b7bc
000003b0: a962 9ebc 1210 9b3c fe05 d23c 38f6 e43a
000003c0: 6ae1 e3bc cf13 9dbc b004 28bb def3 303c
000003d0: 80f5 003c 9c69 df3c c5c6 17bd 7ea3 6f3c
000003e0: 7fd2 f8bc f4ce adbb 297c b9bc 4a17 f0bc
000003f0: 559f c6bc a419 773a b864 8b3c e4e2 61bc
-0.018715886 -0.009491102 -0.0048385416 0.018686006 0.0068580336 0.02419853 0.0048634065 0.020198826
0.011883886 0.01973626 0.00919675 0.025071084 0.013358646 -0.019399902 0.0059807478 0.029510561
-0.0009947167 0.008949745 0.009702541 0.008307933 0.037018087 -0.033824753 -0.03937152 0.029946094
-0.0038450814 -0.0072883395 0.020506695 0.005635533 0.030258894 0.033342503 -0.033811226 0.01270507
-0.0083058365 0.0063958075 -0.012507972 0.00033975035 -0.033720445 0.01504796 0.028105145 -0.018383041
0.0059730704 -0.0113788955 -0.023995563 0.017994605 0.012828675 -0.011570058 0.006780638 -0.020625925
0.0023806836 -0.0050103194 -0.008221714 0.035041504 -0.0001351951 -0.011018005 -0.0047988803 0.011294116
-0.011903881 -0.010675071 0.029254835 0.005237796 -0.006253914 -0.020699726 -0.008765989 -0.015587525
-0.012630025 0.02485849 0.024321215 0.011007912 0.014317428 -0.00060690654 0.011543382 0.007806876
-0.005644767 0.024837367 -0.04015758 0.026162196 -0.0066366466 -0.046505637 -0.039278794 -0.01107176
-0.013396081 0.025974646 0.010607444 0.015241426 -0.052154914 0.024835737 0.02516841 0.018843472
-0.01882229 -0.028530806 -0.014675676 0.029057682 0.008210433 0.029141614 -0.037434503 0.0042684656
-0.009905048 -0.04333725 -0.025034256 -0.013369479 -0.02499585 0.027748773 0.03110702 -0.028322905
-0.023993548 -0.028981915 -0.041306563 -0.0045523755 0.012855195 0.015428985 -0.009094044 0.008739525
0.016032707 0.00081029785 0.015246621 -0.047165312 -0.040696654 -0.012923764 0.014670759 -0.0025882728
-0.024484333 0.023490839 -0.016174354 0.028888179 0.010684673 -0.031335972 0.03742184 -0.005129594
-0.022001509 -0.025388699 -0.01087321 0.026198877 -0.05010562 0.019330194 -0.021109305 0.017582508
-0.0032052821 -0.022706123 0.0004966256 -0.022554707 -0.012552316 0.00034501246 0.013575622 0.01775836
-0.029139446 0.027249059 -0.021571716 -0.02758742 0.010122118 -0.032108564 -0.023915187 0.007869098
0.005742803 0.009089123 0.03764895 0.024191907 -0.010110673 -0.012037936 0.0092165405 0.008027533
-0.021418167 -0.013981128 0.03191567 -0.041770738 0.017352873 -0.039255437 0.0023185785 -0.0099244
-0.012248137 0.003981015 0.02808297 0.037214853 0.029938994 -0.052200362 0.023892904 0.025266048
0.0075098323 -0.030895239 0.015537959 0.0099002365 0.013594069 0.019763496 0.0037682944 0.0009768002
-0.017591061 -0.026193358 0.027476812 0.010110155 0.010791608 -0.00019942393 0.0013863677 -0.039189324
-0.024350876 0.014778607 5.92492e-05 0.031736407 -0.015250717 -0.014502424 0.013756073 -0.02733544
0.03345877 -0.022902546 0.0128390575 -0.0054964493 0.00010970778 0.026254896 -0.010058971 -0.04007555
-0.011440695 -0.0101388525 -0.01573894 -0.012364189 -0.020551266 0.002532469 0.008486935 -0.020960573
0.031695403 -0.0006958462 -0.027934257 0.017967612 -0.008177377 0.015314474 0.02338815 0.023924327
-0.019782096 0.018442115 0.008020367 -0.012690247 0.013564789 0.039551783 0.03994528 0.03328195
0.026706714 -0.000100605765 0.016199915 -0.022391388 -0.019334154 0.018928561 0.025637623 0.0017468398
-0.027817447 -0.019174485 -0.002563756 0.01080033 0.007871032 0.027272038 -0.037054796 0.014626382
-0.03037381 -0.0053042118 -0.022642212 -0.02930798 -0.024245897 0.0009426123 0.0170158 -0.013787005

model.2.weight f4 [128, 256]
00000000: f20d 2b3c 7702 6cbd 0c5c 75bd 1286 5f3d
00000010: bd13 fa3c 9e4b cf3c 9cf3 183c ac3e 54bd
00000020: 2140 9dbb e06d a8bd c670 483d 2d81 8abd
00000030: f41b 493d ab5d 1abd 7bf4 a6bc dfed 333c
00000040: 8a4f 71bd 73e4 b83c 5e0e 493d 0a8c 2abd
00000050: 9453 9b3c f885 673d 03ac 3dbd 3376 843d
00000060: dba8 02bd 42b2 cdbc 5a00 4a3d abfa 0f3d
00000070: 431e cf3c 80be 5dbb 98e8 ebbc 37b1 6fbd
00000080: f565 8d39 913e 9fbc d565 36bd fe16 82bc
00000090: f6fd 6b3c e28b babc efa9 8f3c d851 a9bc
000000a0: 8d41 78bd 8dee 1e3c 9056 0b3d cb70 50bc
000000b0: 8ebe 123d e429 a3bb 8cc2 8abd b04c 093c
000000c0: 8029 5c3b 1f86 aa3c 9b8e 89bd f6ec 95bb
000000d0: d463 6fbd a18a 3cbd 181f 613b 59c3 86bd
000000e0: a665 1e3d a569 e4bc e6ea 8bbd e4ea b73c
000000f0: 8577 6ebd 4bdb abbc 1ab0 423d af0e 703d
00000100: 1de8 86bc 4b81 26bd a412 3bbc 2844 203d
00000110: e742 9dbb 62af 343c 59ea 5c3d cb82 8f3d
00000120: e05f 74bd 348d bebd b4cc 2fbd 64c1 ca3c
00000130: 52cb 4cbd aed0 9d3c 7278 8b3c 02c4 693c
00000140: 7535 7fbd 8519 babd 459c 433d 7c86 803c
00000150: 3544 423d 5b90 95bd 5786 973c 2acb 66bd
00000160: 4d81 0f3d 786e 163d 83cd 2d3c e86a ce3b
00000170: 9843 5a3c 2e39 efbc de74 f4bc a5ad 6bbd
00000180: 198d ea3c b29c 35bd e24b 52bd d54e 00bd
00000190: f5b0 043d ca10 fbbc 0a50 d43c b4ca 44bd
000001a0: 7cc0 57bd 6498 e8bc 95fc 563d bc9d 7abd
000001b0: f3cc 24bd 4bb6 be3c 2be8 2bbd 5eed 47bd
000001c0: 5059 2fbd e080 9bbc ccc0 47bb f8d5 203c
000001d0: d324 5fbd 8efa 4ebd 33c3 a4bc 3955 8e3c
000001e0: 630b b4bc fbd7 3c3d c603 f53c 746d 09bd
000001f0: b462 b5bc cfea 9b3b a4d2 2cbd 0db5 903d
00000200: f47f 8cbc 4a35 54bd 9a3b d73c d3cc d03c
00000210: ba7a 233c 6ae3 32bd 1890 87bd 04cd 53bd
00000220: 067d 073b 9948 2e3d cbb9 62bd 0d95 21bd
00000230: b895 dbbc b992 29bd 4f94 ffbc 91f3 e1bc
00000240: d59b 6dbd c9ee f63c 31d1 22bd b42f 89bc
00000250: 3054 51bb c742 583d d6bc 593c bfd6 04bd
00000260: b90a 82bd 1e08 21bb 18e1 84bb 59ef c13c
00000270: 7d56 f83c 68c6 4e3d 0f75 6abd 0788 6ebd
00000280: 8567 303d b963 d53c 12e0 43bd caba 7dbd
00000290: 91a2 00bd 24fd db3b d7d6 3f3d 01d0 35bd
000002a0: a1af c63b e1ba f43a 42c6 db3c 0305 18bd
000002b0: 3f54 6dbd 30d0 34bc dec6 b23c 9eb4 78bd
000002c0: 957d 313c 3b53 57bc 956e 39bd 2893 70bd
000002d0: ff69 553d 3b29 7abc 31f2 88bd 1b85 86bd
000002e0: 6586 a7bd 56d6 25bc 3703 193d af91 173d
000002f0: 2fe2 3f3c bc3f b1bc 8570 88bd 1c0b 6abd
00000300: 803a 563c e6d6 19bd 430a d7bc 0ee3 253c
00000310: 16a1 67bd e8d2 6f3c 4cbe d43c 0277 ed3c
00000320: 66bc 7abd d4cb 13bd 3efb 5fbd 71f4 f73c
00000330: 488c 35bc 3f8f 483d dbc0 b1bc f6ff 093c
00000340: c16d f23c 0f28 0e3c 13c4 4e3c 90b5 6bbd
00000350: 8f05 103d 1667 44bd 66eb 80bc d7d5 5fbd
00000360: 9812 a5bd 9aa9 f53a 5ec2 0bbd 952d 893b
00000370: ed01 24bd 27da ccbc 193b 473d 671b 2dbd
00000380: b891 f03c 94b9 673d 67a5 dc3b be07 57bd
00000390: 4a20 3dbd 6989 8abd 3388 173d 1c5c d4bb
000003a0: 1937 a23c 948d 203d 8e55 32bd 258d bebd
000003b0: 58b1 753c 3640 f93c 1e1a 31bd 2cf9 94bd
000003c0: 170c f6bc 7338 84bd 9c5e 3c3d 10c8 3b3c
000003d0: e03f b9bb 302a 55bc 1cbc 5a3d 2ad2 473d
000003e0: aacd e9bc 1813 573c 0876 973d a0bf 25bd
000003f0: 1936 963d 4e06 22bd c9f1 e03b e5a2 c53c
0.010440337 -0.05761954 -0.059902236 0.05457122 0.03052699 0.025304612 0.009335425 -0.05181758
-0.0047989045 -0.08224082 0.048935674 -0.067629196 0.049098924 -0.037686985 -0.02038025 0.010982006
-0.058913745 0.02256987 0.049085967 -0.041637458 0.018960752 0.056524247 -0.04630662 0.06467857
-0.031899314 -0.025109414 0.04931674 0.035151165 0.025282985 -0.003383547 -0.028797433 -0.058518615
0.0002696958 -0.019439014 -0.04453071 -0.015880104 0.014403811 -0.02277178 0.017537085 -0.020668909
-0.06060939 0.00970043 0.0340181 -0.012722204 0.03582626 -0.004979359 -0.06775388 0.0083801
0.0033594072 0.020815907 -0.06716653 -0.004575367 -0.058444813 -0.046030644 0.0034350809 -0.06580228
0.03867116 -0.027882406 -0.06831913 0.022450872 -0.05821945 -0.02097859 0.047531225 0.058607753
-0.016468102 -0.040650647 -0.0114180185 0.0391275 -0.004799235 0.011028143 0.05393443 0.07007369
-0.059661746 -0.09304276 -0.04291983 0.024750419 -0.04999859 0.019264545 0.017025206 0.014267923
-0.06230684 -0.09086899 0.047756452 0.015689127 0.04742833 -0.07302924 0.018496675 -0.056346096
0.03503542 0.036726445 0.01060808 0.0062993653 0.01332178 -0.02920207 -0.029840883 -0.057538647
0.028631734 -0.04433889 -0.0513419 -0.03132518 0.032395322 -0.030647654 0.025917072 -0.048044875
-0.0526738 -0.028392978 0.052486975 -0.061185583 -0.040234517 0.023280283 -0.04196946 -0.048810355
-0.042809784 -0.01898235 -0.0030479906 0.009816639 -0.054478478 -0.050531916 -0.02011261 0.017374622
-0.021978086 0.046104413 0.029909026 -0.03355165 -0.022141792 0.004758216 -0.04219307 0.07065783
-0.017150857 -0.051808633 0.026273537 0.025488293 0.009977991 -0.04367391 -0.066192806 -0.05170919
0.0020673885 0.042549703 -0.055352967 -0.039448787 -0.02680479 -0.04139969 -0.031198649 -0.027581962
-0.05800994 0.030143159 -0.03975028 -0.01674638 -0.0031941049 0.05279806 0.013289651 -0.03243136
-0.063497014 -0.0024571489 -0.0040551536 0.0236737 0.030314678 0.050482184 -0.057240542 -0.058235195
0.043067474 0.026048528 -0.047821112 -0.061945714 -0.031405035 0.0067135263 0.046835747 -0.04438782
0.006063417 0.0018671417 0.026827935 -0.037114155 -0.05794167 -0.011035964 0.021823343 -0.060719125
0.010833164 -0.013142402 -0.045271475 -0.05873409 0.05210304 -0.015268619 -0.06686819 -0.065683566
-0.081799306 -0.010121902 0.03735658 0.03700417 0.011711641 -0.021636836 -0.066620864 -0.0571395
0.013075471 -0.03755846 -0.02625001 0.010124935 -0.056550108 0.014637686 0.025969647 0.028987411
-0.061214827 -0.036083058 -0.054682963 0.030267926 -0.011080809 0.048964735 -0.021698406 0.008422842
0.02959335 0.008676543 0.01261999 -0.0575462 0.03516155 -0.047949873 -0.015737247 -0.054647293
-0.08060187 0.0018742562 -0.03412091 0.004186342 -0.0400409 -0.025006367 0.048640344 -0.04226246
0.02936636 0.056573465 0.0067335847 -0.052497618 -0.04617337 -0.0676449 0.036995124 -0.006480707
0.019801663 0.03919752 -0.043538623 -0.09304265 0.014995895 0.030426126 -0.043237798 -0.07274088
-0.030035062 -0.06456079 0.045988664 0.011461273 -0.0056533664 -0.013010547 0.05340205 0.048784412
-0.028540451 0.013127111 0.073955595 -0.04046595 0.07334537 -0.039556794 0.0068647605 0.024125526

model.2.bias f4 [128]
00000000: 6df3 cdbb 05e2 a0bb 1bd3 db3c 8b45 273d
00000010: 4af5 7e3d 080f 96bd bb02 80bd c703 a53d
00000020: dbed 013d 1b86 463d 84ff 083b a8e2 86bd
00000030: a614 573d cea1 abbd d4b0 823d 9af4 a9bc
00000040: 12e5 2dbd d68b b8bb 205f 8d3c 1023 bbbd
00000050: 3e74 54bd 308d 0bbd e224 e4bd c10f 9abd
00000060: b30f 54bd e8e1 ca3c 39fe 3a3c 9cee f8bc
00000070: 3e67 74bc 07bd c3bd 014e bd3d ee02 103e
00000080: ddae 033c 73b4 00bc 0d8e d13b 888e 453d
00000090: 4b3f 2a3d 8e18 3e3d e2c0 923a f9e6 6ebd
000000a0: 7353 85bd 46bb 543d 949d 23bc 2e75 e23d
000000b0: 09be fb3c 6d75 213c 8dba b8bc 1f1b 883d
000000c0: e003 aabd 365d 903d e203 813c b72f a63c
000000d0: c898 41bc e72b 153d f709 813d 3920 f33c
000000e0: 1fd2 773d 5c99 413d f50c 0b3d 4b41 5cbc
000000f0: 8f08 103c ba0a 35bc edc2 01bd 927a a8bc
00000100: b9e0 c23a 7b76 2ebc 590e da3d ef45 afbc
00000110: dd89 2abd 7e47 943c 5294 2bbd 363e d4bc
00000120: 2674 8ebd 6c91 a5bd 5f12 3b3d 8465 883c
00000130: ce73 33bd 5934 d0bd 4c22 2ebc 4d28 31bb
00000140: 33e5 04bd 5d6f 323d b2d2 a53b af23 31bb
00000150: e6e3 39bb 7c18 213d 909e a4bd c5b1 26bd
00000160: 4a3a 763c c3ac 77bd 512a b7bc 126e a63d
00000170: a216 313d 8a6c eabd 298d db3c 12d8 253d
00000180: 222b 6ebd 4bf3 28bc 6443 093e ff93 dd3c
00000190: d43e 87bc 2792 0f3d fd03 4a3d b343 6cbd
000001a0: d384 edbc 6d62 e9bc 0535 14bd 6f35 7c3d
000001b0: f9ec 66bb 91dc 773d fe18 94bd 10c9 5239
000001c0: 7e4a 453d 226e c73c a8fb 043c b8ca 2b3d
000001d0: 8b55 d03a 9c50 e63b d8a9 89bc 520b 3ebd
000001e0: b25a 8ebc 786b bcbc a84a ca3c 2c30 c53c
000001f0: 575e 0e3d 0fc3 bfbc 2c0d 253d 68d2 8e3d
-0.006285122 -0.004909756 0.026834061 0.040837806 0.062245645 -0.07327086 -0.06250521 0.08057361
0.031720977 0.048467737 0.0020904252 -0.065862 0.052509926 -0.08380471 0.063813835 -0.020746518
-0.042454787 -0.005631904 0.017257273 -0.09137547 -0.05186867 -0.034070194 -0.11139847 -0.07522536
-0.051772784 0.024765924 0.0114131505 -0.030387215 -0.014917193 -0.095575385 0.09243394 0.14063618
0.008037296 -0.007855522 0.0063951076 0.04823163 0.041564267 0.046410136 0.00111964 -0.05832574
-0.06510057 0.05193641 -0.0099863 0.110575065 0.030730264 0.009854657 -0.022549892 0.06645798
-0.0830152 0.070490286 0.015748922 0.020286424 -0.011816211 0.03641882 0.06300729 0.02967845
0.06050312 0.047265396 0.033947904 -0.013443301 0.008791103 -0.011049921 -0.031680036 -0.020566259
0.0014867998 -0.010648365 0.10647268 -0.021395652 -0.041635383 0.018100496 -0.041889496 -0.02590857
-0.06955747 -0.08084378 0.045671817 0.016649969 -0.04381161 -0.101662345 -0.010628294 -0.0027032078
-0.032445144 0.043563236 0.005060517 -0.0027029326 -0.0028364598 0.03932999 -0.08038056 -0.040696878
0.015028546 -0.060467493 -0.022359045 0.08126463 0.043234475 -0.114464834 0.026800709 0.040489264
-0.058146603 -0.010311912 0.13404614 0.02704811 -0.016509451 0.03505149 0.04932021 -0.05768175
-0.028994 -0.028489316 -0.036183376 0.061574396 -0.0035236462 0.060513083 -0.072313294 0.00020102062
0.048166744 0.024344508 0.00811664 0.041941375 0.0015894634 0.0070286524 -0.01680462 -0.046397515
-0.017377231 -0.023000464 0.024693802 0.024070822 0.03475794 -0.02340844 0.040295765 0.069737256

model.4.weight f4 [5, 128]
00000000: 3ef4 41bd bf84 f0bc 964e 23be b9c1 043e
00000010: 9717 88be d890 b0bc fe1e 10bd a85d 87bc
00000020: c494 013e 5a28 ff3c b6af 4fbd 8ec3 2fbd
00000030: b550 b33c 9ddf 11bc df75 bb3d 6dd2 b33d
00000040: 2631 843c cf07 05bd f7f4 8e3d fb7c 123e
00000050: 7d97 a23d 7b8d fb3c 72ab b43d 5dbc 14bd
00000060: a29a 0cbe 4321 9f3c 3d59 413d c5ae 033e
00000070: e681 bd3d 1444 77bd 51bd 89be 2beb edbe
00000080: 88b4 2d3c 37e3 0dbc ec97 e53d d16c 8f3c
00000090: 1406 f83d 149c 21bd e6a6 313d a5e9 b2bc
000000a0: b35c 3fbd 1e7a 2f3d cb5e 15be 24e9 cbbe
000000b0: 34ed 8c3d 92e6 02bd d9a5 88bd 41d1 babc
000000c0: dc3c db3b e11c bfbc ef62 89bd d983 73bd
000000d0: 3282 99bd 4dee fa3d e1e2 beba fc84 19bb
000000e0: 402e 8fbe d067 a8bb 5b9f 023e c80f af3d
000000f0: 8bbd 3c3d 0b82 ce3c 8f57 0a3c 7770 563d
00000100: 52a8 c33d ecc5 293d e332 27be 01d1 b93d
00000110: 4004 1fbd fdaf 52bd 56e5 0b3e a5e8 a1bd
00000120: 2aec 583e bc04 d23c d0b7 6c3d d305 0d3c
00000130: 59a3 9dbc c788 d13c 459e 07bd 541c a83d
00000140: bc39 453d 2a76 d03d ba47 96be 29b0 e33d
00000150: ee91 2e3d 01bd b33d 8138 e9bc ab2d 7c3d
00000160: d9b3 eb3d ba54 a0bd 08df 61be b606 4dbe
00000170: 89d1 963d ac16 a9bc f02f c73d 9bf8 883d
00000180: f521 d9bc bcd3 0dbe 2329 e6be 016f f8bc
00000190: 720b 183e 94f8 1cbd e3d8 2e3c c4c2 143d
000001a0: 66b2 a33d 41c2 093e b2f0 a93d 80a2 d63d
000001b0: 7ab9 13bd 1a6a cfbd 0c72 f2bc 008f 063e
000001c0: 39df a43d cd7c 5fbe d5a7 163e 101e 0fbe
000001d0: eb9e 583b a376 14bc d9ea b3bd 1123 04bd
000001e0: 0e72 c3bc fb12 67bb 6ce1 363d 7e0d 093e
000001f0: cd15 a73d 6653 75ba 8129 c7be 2dce c63d
00000200: 1faf e6bc c0a2 c63a 8741 70bd 0526 e7bd
00000210: 215d 2cbe d71e 803d 4eb5 12bd e413 23be
00000220: 4609 d1bd cea7 153d 24b5 8bbc aa47 8dbd
00000230: df4a 0c3c 6a4e 4b3e 153f a13d 1891 013e
00000240: bf3a 76bd 3464 92bd 3ded 8c3d ce34 cebd
00000250: dc6a 74bd 94f3 943d dfde 26bd 16ff eb3a
00000260: d9b1 95bd 8275 c63c c0cb a53d 2163 883d
00000270: 68a1 c13c fc91 23bd 87ee 823c d31a 523e
00000280: 002e 9c3c ff67 06bd 1bb9 f73d f9d8 b1bc
00000290: c2f1 34bd ece6 3c3d 0f0e 983d a07e a93c
000002a0: 688c 4a3d 770a 3a3d 52d2 9d3c 651b 1a3e
000002b0: da64 ce3d 42df 96bd 78e9 a5bd 175a 40be
000002c0: 12ce 463c d491 093d d77e 56bd fc8b bd3d
000002d0: aaa6 c73c 665e 2f3d 27d4 223d 2018 1b3c
000002e0: 2502 37be 9997 06be 4f1a ef3c cd5b c8bb
000002f0: 16cf 5dbe 17de 0bbd f083 e13d a5a1 ae3d
00000300: ae6a 113e 8b30 9c3d 6602 e23c 567b 163e
00000310: 303c 8dbd b26c 0a3d 8d0d 04be 1de1 e4bd
00000320: 6277 35be 2802 f23c a639 29bc e642 7dbd
00000330: b7ab 043e 04be 31be edc8 4abc 4add 343d
00000340: 65aa c5bd c67a 8c3d 0b92 b1bd c15e 14be
00000350: 39ac 773d c680 3f3c 4fa8 1ebd 1253 f63d
00000360: 09a7 d4bd 3011 c9bc 7b60 42be e506 1bbe
00000370: 418f d13d b4b6 dfbc 8a02 b43d e801 32bd
00000380: 4307 353e 8907 c3bd 606d e73d 16d9 923c
00000390: 389e ad3b 6302 853d 6f41 c73d 813e 583d
000003a0: 56e0 99bc 134f d93d fe77 4ebe bc85 edbd
000003b0: 82f9 edbd d902 003e 0112 93bd fd98 673d
000003c0: 28b0 a4bd af31 0b3e e8d7 4f3d cec8 50be
000003d0: f173 3bbe 8693 423e 9478 c23b 981b a13d
000003e0: c011 8e3c 3fd5 8d3d d784 16bd 4f10 3bbd
000003f0: 9026 c0bd b527 473d 1e3b 9f3c 72e9 ec3d
-0.047352068 -0.029360173 -0.15947947 0.12964524 -0.26580498 -0.021553442 -0.035185806 -0.016524151
0.12654406 0.03114717 -0.05070468 -0.042911105 0.02188907 -0.008903411 0.091533415 0.0878037
0.016136717 -0.03247815 0.06980317 0.14305489 0.0793905 0.030707112 0.08821763 -0.03631245
-0.13730863 0.01942504 0.047204245 0.12859638 0.09253292 -0.06036766 -0.2690225 -0.4646848
0.010602124 -0.008660129 0.112106174 0.017507942 0.12110534 -0.03945549 0.043372057 -0.021839926
-0.046719264 0.04284107 -0.14586942 -0.3982631 0.068811804 -0.03195817 -0.06672258 -0.022804858
0.0066906046 -0.0233292 -0.06708323 -0.05945191 -0.07495536 0.122524835 -0.0014563465 -0.0023425212
-0.27964973 -0.0051393285 0.12756102 0.08547932 0.0460792 0.025208494 0.008443727 0.05235335
0.09553589 0.04144852 -0.16328005 0.090730675 -0.038822412 -0.051437367 0.13661703 -0.079057015
0.2118384 0.025637023 0.057792485 0.008607346 -0.01924293 0.025577916 -0.033109922 0.08208528
0.048150763 0.10178788 -0.29351598 0.11117584 0.04261964 0.08776284 -0.028469326 0.06156699
0.115089126 -0.0782866 -0.22057736 -0.20022091 0.073641844 -0.020640694 0.0972594 0.06688043
-0.02650545 -0.13850302 -0.4495326 -0.030326368 0.14848116 -0.038323 0.010671827 0.036318555
0.07993011 0.13453008 0.08297862 0.10480213 -0.036065556 -0.10127659 -0.029595397 0.13140488
0.08050389 -0.21824951 0.1471246 -0.13976312 0.0033053707 -0.009061488 -0.08785028 -0.032260004
-0.023858096 -0.0035259116 0.044648573 0.13384053 0.08158455 -0.00093584356 -0.38898852 0.09707294
-0.028159676 0.0015154704 -0.05865624 -0.112865485 -0.16832401 0.06255882 -0.035817437 -0.15925556
-0.10206847 0.036536984 -0.017054148 -0.068984345 0.008562773 0.19854131 0.0787336 0.12653005
-0.06011462 -0.071480185 0.06881187 -0.100686654 -0.05967222 0.07273021 -0.04073989 0.0018005099
-0.073093124 0.024225954 0.08095503 0.06659532 0.023636535 -0.039934143 0.01598288 0.20518045
0.019064903 -0.032814022 0.12095853 -0.021709906 -0.04417587 0.04611866 0.074245565 0.020690262
0.049450308 0.045420136 0.019265328 0.15049513 0.1007783 -0.07366802 -0.08101171 -0.18784367
0.012134092 0.03358634 -0.052367058 0.092552155 0.024371464 0.042814635 0.039753105 0.009466201
-0.17871912 -0.13143767 0.02918735 -0.006114459 -0.21661028 -0.03414735 0.11011493 0.08526925
0.14200851 0.07626446 0.027589034 0.14695486 -0.068962455 0.033795066 -0.12895794 -0.111757495
-0.17721322 0.029542044 -0.010328686 -0.061831377 0.12956129 -0.17357641 -0.012377006 0.04415635
-0.09651641 0.06859355 -0.086704336 -0.14489271 0.06046698 0.011688417 -0.03873473 0.12027563
-0.10383422 -0.024544328 -0.18982117 -0.15139349 0.10232402 -0.0273088 0.08789547 -0.04345885
0.17678551 -0.095229216 0.113001585 0.01792578 0.005298402 0.06494596 0.09729277 0.052793983
-0.01878373 0.10610785 -0.20162961 -0.115977734 -0.116198555 0.12501086 -0.07181168 0.056542385
-0.08041412 0.13593172 0.050743014 -0.20389101 -0.18305947 0.19001588 0.005934784 0.07866591
0.017342448 0.06925439 -0.03674778 -0.04566985 -0.09382355 0.048621852 0.019437369 0.11567964

model.4.bias f4 [5]
00000000: 1e67 743d db31 cdbd 7a62 d2bc 4f63 693b
00000010: 0722 983c
0.059668653 -0.10019275 -0.025681723 0.003561217 0.018570913
